app/models/glovefromscratch.model (torch, 347608 bytes, 4 tensors)

center_embedding.weight f4 [14395, 2]
-0.051280975 -0.4753798 -1.0677319 0.28310293 -1.7609738 -1.1780194 -0.15236221 0.23741755
-1.16337 -0.52303267 -1.01197 -1.2332368 -0.037781853 -0.5730116 -2.0729284 -0.098881155
-0.073135294 -2.0798564 -0.6249589 0.4974935 -0.2998222 0.75692517 0.078006536 0.30873308
-1.8014822 -0.86035025 -0.41299534 -1.3658776 0.88702804 0.469123 -1.6550628 -0.41952607
0.80280554 -0.26813546 -1.5362062 -0.37789115 3.4000027 -0.80490226 1.7413839 0.792443
1.2341677 -0.5720155 1.2216378 1.1383377 2.5844278 -0.3216753 -0.59988403 0.60198516
-0.7419285 -1.0653187 0.654406 -1.1338522 -1.5581926 -0.3268675 -1.6972082 1.084931
0.052447934 -0.37025392 0.06571316 -0.76120764 0.20491868 -0.6866002 -0.98893493 -1.004543
-0.14941074 -0.24778695 0.9340977 -1.2030708 0.846996 -0.33850622 0.30351698 1.282389
-0.24234675 -0.82263917 1.7466896 1.9988602 0.74032533 -0.76351386 1.3828448 -0.76489055
-0.04569059 -1.6864725 0.06794512 -1.0113556 1.1503941 -0.66119695 -0.20506246 0.48309535
0.5090528 -0.04485139 -1.4949578 -0.322899 -0.7029645 0.15059184 -0.44924966 0.43507677
0.10623914 -1.1850951 2.1078146 -0.10424086 2.4314806 -1.0415597 -1.5530938 -2.3993971
0.2398552 -0.22254938 1.2975082 -0.3774842 -0.75022095 -0.49484986 -0.34562913 -0.49634108
-0.09285126 0.10057442 -0.032552112 0.38894123 -0.77676034 -0.25405404 0.2234421 -1.3361481
0.4717006 -0.58582324 -1.0138657 -2.1508238 0.27901226 0.61085904 -1.0175924 0.34176025
-1.1300666 -0.48618156 -0.34978306 -0.10985875 -0.09119605 0.037963677 -0.15955177 0.4886745
0.46434033 0.4135747 -0.043065585 0.21827038 -1.8446848 -2.0614915 -0.9982306 0.44431484
-0.12958238 0.18350074 -0.38045627 -0.40786922 -0.3455098 -0.12437155 -1.2045228 -0.5831966
-0.7118875 -1.1930418 2.0242944 0.234203 -0.934882 -0.88505274 0.060538787 -0.58712125
-1.5931317 -1.6580411 -0.3037917 0.057688776 -0.062352583 0.9891408 0.47923282 0.36672682
-0.9309604 0.00486176 -0.4856635 0.51496476 -0.35335413 -0.562256 -0.5908596 1.3296758
0.41305238 0.17674884 -2.2120042 -0.5557833 1.5610464 -0.888911 1.0767204 1.3748504
-0.44171947 -0.05091324 0.17606626 -0.4864891 -1.7141458 1.3650643 -0.7717666 -0.50414336
0.5391337 0.82016736 -0.5489414 0.020948939 -1.9925697 -0.09276085 -1.4884571 -1.901016
-0.20864482 1.3491732 -0.0027492903 0.07116357 0.27106625 1.0970821 -0.27829218 1.2380956
-1.1250007 -2.6314 -1.4123333 0.59589446 -0.47539082 1.0674555 -0.8187701 0.9688885
-0.11385813 -1.4425489 1.0048319 0.85276186 0.5210769 -0.51199615 -0.060765553 1.0132971
1.0849575 -0.49397433 -0.1435356 1.7190759 0.13563748 -0.43700024 0.31356218 1.1891655
0.54353404 0.5690831 -0.583116 0.118106745 1.2646903 -0.80806375 0.6621931 -0.67172414
-1.0358753 0.36816198 -0.45349994 0.2876293 1.3088249 0.426379 -0.65909207 1.1584836
0.3061048 -0.85338295 -0.78244495 0.5965365 -1.0551612 -0.30811256 -2.0675197 0.7640262
00000000: 000c 52bd fb64 f3be 70ab 88bf def2 903e
00000010: 9767 e1bf 57c9 96bf d704 1cbe 961d 733e
00000020: 4fe9 94bf 78e5 05bf 3c88 81bf b4da 9dbf
00000030: 25c1 1abd e3b0 12bf dcaa 04c0 3482 cabd
00000040: f5c7 95bd 5e1c 05c0 4efd 1fbf 78b7 fe3e
00000050: 4c82 99be d9c5 413f e4c1 9f3d 4312 9e3e
00000060: f896 e6bf ea3f 5cbf 2074 d3be 14d5 aebf
00000070: 4514 633f e430 f03e 19d9 d3bf 1fcc d6be
00000080: aa84 4d3f 0d49 89be 68a2 c4bf f37a c1be
00000090: a599 5940 130e 4ebf abe5 de3f 8bdd 4a3f
000000a0: 35f9 9d3f 9c6f 12bf a15e 9c3f 0db5 913f
000000b0: 4467 2540 a0b2 a4be 0092 19bf b31b 1a3f
000000c0: 07ef 3dbf 5d5c 88bf 2787 273f 1222 91bf
000000d0: db72 c7bf 2d5b a7be 1e3e d9bf 05df 8a3f
000000e0: a5d3 563d ec91 bdbe 9f94 863d 81de 42bf
000000f0: 34d6 513e 08c5 2fbf d72a 7dbf dd94 80bf
00000100: 21ff 18be ddbb 7dbe 0721 6f3f 39fe 99bf
00000110: bbd4 583f b050 adbe 9466 9b3e 5325 a43f
00000120: bf29 78be 7b98 52bf 8693 df3f a7da ff3f
00000130: f685 3d3f a575 43bf 0f01 b13f decf 43bf
00000140: 0e26 3bbd 55de d7bf d026 8b3d 1a74 81bf
00000150: 1d40 933f 3444 29bf e5fb 51be 4658 f73e
00000160: 4951 023f 17b6 37bd c75a bfbf 0553 a5be
00000170: 7bf5 33bf bf34 1a3e 0d04 e6be 62c2 de3e
00000180: e893 d93d 32b1 97bf 6fe6 0640 3b7c d5bd
00000190: 619d 1b40 d451 85bf c7cb c6bf b98f 19c0
000001a0: 9a9c 753e fce3 63be c014 a63f 9c45 c1be
000001b0: 7b0e 40bf f65c fdbe 4df6 b0be 6b20 febe
000001c0: cd28 bebd f6f9 cd3d 5d55 05bd 4e23 c73e
000001d0: c4d9 46bf 5f13 82be 02ce 643e e706 abbf
000001e0: be82 f13e 83f8 15bf 5ac6 81bf 19a7 09c0
000001f0: b2da 8e3e 4261 1c3f 7840 82bf 33fb ae3e
00000200: 06a6 90bf caec f8be c416 b3be a0fd e0bd
00000210: ffc4 babd cd7f 1b3d 8a61 23be 8b33 fa3e
00000220: 04be ed3e 10c0 d33e 8a65 30bd 4582 5f3e
00000230: a21e ecbf 7aef 03c0 0a8c 7fbf 3c7d e33e
00000240: 3eb1 04be 9ee7 3b3e 2acb c2be 3cd4 d0be
00000250: a9e6 b0be 83b6 febd ce2d 9abf 5f4c 15bf
00000260: 423e 36bf 98b5 98bf 0a8e 0140 e9d2 6f3e
00000270: 6d54 6fbf d192 62bf 85f7 773d 944d 16bf
00000280: bdeb cbbf b13a d4bf 968a 9bbe 114b 6c3d
00000290: 6c65 7fbd 5538 7d3f 015e f53e 9ec3 bb3e
000002a0: 6c53 6ebf 664f 9f3b e3a8 f8be bbd4 033f
000002b0: d5ea b4be 02f0 0fbf 9342 17bf d132 aa3f
000002c0: 9a7b d33e a6fd 343e 7a91 0dc0 d047 0ebf
000002d0: 5ed0 c73f ac8f 63bf f9d1 893f 19fb af3f
000002e0: 0e29 e2be 678a 50bd b74a 343e 1915 f9be
000002f0: 2169 dbbf 6dba ae3f 7f92 45bf 8a0f 01bf
00000300: ab04 0a3f 7df6 513f 6c87 0cbf 1c9d ab3c
00000310: 860c ffbf 67f9 bdbd c385 bebf 7e54 f3bf
00000320: fda6 55be b5b1 ac3f 702d 34bb 35be 913d
00000330: 32c9 8a3e 306d 8c3f 507c 8ebe eb79 9e3f
00000340: 0600 90bf dc68 28c0 56c7 b4bf 8a8c 183f
00000350: 6d66 f3be 62a2 883f eb9a 51bf 1409 783f
00000360: 742e e9bd 71a5 b8bf 559e 803f 9a4e 5a3f
00000370: 4c65 053f 2e12 03bf 4de5 78bd b8b3 813f
00000380: e3df 8a3f 34ea fcbe fffa 12be ae0a dc3f
00000390: 8de4 0a3e 7fbe dfbe 398b a03e 9336 983f
000003a0: 0c25 0b3f 6eaf 113f 1747 15bf f3e1 f13d
000003b0: 5fe1 a13f 44dd 4ebf 7d85 293f 1df6 2bbf
000003c0: 9097 84bf ba7f bc3e 2531 e8be 2644 933e
000003d0: 9387 a73f 594e da3e 42ba 28bf 3149 943f
000003e0: c5b9 9c3e 4e77 5abf 504e 48bf 9eb6 183f
000003f0: 860f 87bf eec0 9dbe 3e52 04c0 3997 433f

outside_embedding.weight f4 [14395, 2]
-1.9161056 0.555915 -0.025539653 0.22958589 1.1987804 -2.0880048 0.42450657 -0.23090826
-0.38826194 -0.10259233 -0.57704586 0.88056535 -0.10333079 0.2871279 -0.34106314 -0.78840524
-0.4345587 -1.2953256 -3.4734108 0.6265876 2.0174465 -1.3282619 -0.616419 2.2560582
0.4433174 -0.9486287 1.7760539 -0.48330545 -0.0063113067 -0.13573098 0.8681355 0.23810114
0.26122773 0.3111923 -0.45615867 -0.25278324 -0.8180838 0.4441998 0.34145963 -0.65751356
0.946281 2.6017735 0.54708505 0.78842014 -0.88481987 -0.39480302 -2.441255 0.34974897
1.6841732 0.7419892 0.32663873 0.38860565 1.0229845 0.32534984 0.13047382 -1.7883604
-0.23868829 0.028094484 2.0463095 -0.6813228 -0.47487003 0.27640325 -1.2166542 0.28036094
1.202363 1.4882718 1.3357779 0.6686652 -2.329971 0.10874203 -1.2666078 -0.08452571
-1.032206 -0.89380944 1.1118689 0.46173456 -0.33126655 -0.9923338 -2.2872558 0.24946268
0.92176753 0.75282913 2.4107747 0.8184776 -0.33798206 0.7821645 0.29663733 -2.578796
1.4306349 0.005603657 -0.3564105 -1.3140596 0.9002516 -0.0074426066 0.53009844 -0.17007716
0.1271188 0.581741 1.6058427 0.39828983 1.6314077 0.039844234 0.82088816 1.1940508
-0.45148492 0.6027954 0.23193978 0.78664553 2.101468 1.8102868 1.454498 -0.2912805
-1.2298591 1.9572022 -0.09696527 0.7747352 0.065529354 1.3738427 0.6482794 -0.8120034
-1.7304089 -0.46559882 -0.29539508 0.78240466 0.59108186 -0.23197827 0.60554826 -0.15461197
0.80596906 0.7058405 -0.30527598 -1.0211775 -0.842482 -0.06792677 -1.5970261 -0.065795794
0.6506591 1.7693437 1.8855869 0.2509207 -0.4514411 1.4143349 -0.9421413 0.34657565
-1.1297983 0.21672809 0.35628122 1.2509806 0.40010142 0.32230738 -0.42341843 0.57536715
-0.99736965 1.9872383 0.72649056 -2.0483947 0.5652394 0.37257615 -1.1645093 0.6460993
-0.27205333 0.0018955047 0.705671 -0.43621254 0.50446033 -1.5811216 0.4512658 -1.8780397
-0.21667542 -0.11276944 0.7275693 -0.161731 0.9265642 0.8793298 -1.605246 -2.1593509
-1.1054839 -1.6158389 -0.96344906 0.2433657 0.6109735 -2.0594883 -1.3533949 -0.06960362
-0.35948107 1.4004917 0.15261108 -1.404718 1.0774236 -0.9318047 -0.6263448 0.32845196
0.39732763 0.09436304 0.6820437 -1.7279233 1.8047516 -0.008964059 -1.4613361 -0.53844935
-1.2339038 0.075121865 -1.3517928 -0.4775291 1.1854234 -0.14978264 -0.9061892 -0.71839106
-0.71801686 -0.8635519 1.2836314 0.68166435 -0.24006127 0.13488305 -0.3527962 -0.1451306
-0.84792525 1.1954482 0.14549416 2.0372941 1.330186 -1.1934214 0.11851741 -1.5520499
0.3258859 -1.1953461 -0.13836901 0.15614828 -0.47505713 0.35728157 0.4028992 -0.7319453
-0.3200653 1.0944415 -0.6129179 1.586193 -0.15380199 -0.29215053 0.92056483 0.6165436
-1.0503582 1.4149483 -0.25254855 1.7428881 -0.6893222 -0.9262144 0.20317465 -0.089113355
1.2110015 0.08662502 0.41246477 0.4009491 0.6177669 1.0486077 1.4557018 -0.10027173
00000000: f342 f5bf 7250 0e3f 8938 d1bc 9018 6b3e
00000010: a371 993f dfa1 05c0 ed58 d93e 3773 6cbe
00000020: 45ca c6be ed1b d2bd 47b9 13bf bb6c 613f
00000030: 189f d3bd 6e02 933e d49f aebe edd4 49bf
00000040: 7a7e debe 3bcd a5bf 5d4c 5ec0 0c68 203f
00000050: d81d 0140 7c04 aabf a3cd 1dbf 4263 1040
00000060: 80fa e23e 55d9 72bf bc55 e33f d073 f7be
00000070: 14cf cebb 10fd 0abe 213e 5e3f c9d0 733e
00000080: a4bf 853e 9954 9f3e a18d e9be ce6c 81be
00000090: f16d 51bf 286e e33e ccd3 ae3e cf52 28bf
000000a0: 793f 723f 7583 2640 c40d 0c3f e7d5 493f
000000b0: 8e83 62bf 9f23 cabe 863d 1cc0 4c12 b33e
000000c0: fd92 d73f 01f3 3d3f 313d a73e 52f7 c63e
000000d0: 28f1 823f 4194 a63e ee9a 053e fee8 e4bf
000000e0: b46a 74be 6726 e63c bcf6 0240 2c6b 2ebf
000000f0: 2a22 f3be ba84 8d3e 53bb 9bbf 788b 8f3e
00000100: 08e7 993f b17f be3f c5fa aa3f a42d 2b3f
00000110: 3f1e 15c0 24b4 de3d 3420 a2bf d11b adbd
00000120: 541f 84bf b2d0 64bf b851 8e3f 7968 ec3e
00000130: c59b a9be 9709 7ebf 6662 12c0 2573 7f3e
00000140: f5f8 6b3f 69b9 403f 224a 1a40 bf87 513f
00000150: fc0b adbe ef3b 483f d9e0 973e fe0a 25c0
00000160: 0b1f b73f e29e b73b 707b b6be 1b33 a8bf
00000170: e476 663f 1ce1 f3bb 88b4 073f b528 2ebe
00000180: 6e2b 023e faec 143f 418c cd3f a5ec cb3e
00000190: f8d1 d03f b533 233d ba25 523f a8d6 983f
000001a0: 0829 e7be cd50 1a3f 9f81 6d3e 9a61 493f
000001b0: 747e 0640 7ab7 e73f fe2c ba3f b822 95be
000001c0: 066c 9dbf 9a85 fa3f ba95 c6bd 0c55 463f
000001d0: 4134 863d 14da af3f a4f5 253f 74df 4fbf
000001e0: 0a7e ddbf f862 eebe 063e 97be ac4b 483f
000001f0: 2451 173f b68b 6dbe 3605 1b3f 9a52 1ebe
00000200: fd53 4e3f f7b1 343f 224d 9cbe f2b5 82bf
00000210: e6ac 57bf 311d 8bbd 5a6b ccbf f2bf 86bd
00000220: 9891 263f db79 e23f e95a f13f ae78 803e
00000230: 4a23 e7be ed08 b53f 2c30 71bf 5d72 b13e
00000240: 3b9d 90bf f8ed 5d3e 7e6a b63e 2220 a03f
00000250: 18da cc3e 7905 a53e 4dca d8be 434b 133f
00000260: 9e53 7fbf d35d fe3f 49fb 393f e618 03c0
00000270: 88b3 103f 4dc2 be3e a40e 95bf c466 253f
00000280: 934a 8bbe 9572 f83a dba6 343f 4057 dfbe
00000290: 5024 013f 3162 cabf 500c e73e 9b63 f0bf
000002a0: 29e0 5dbe aaf3 e6bd fb41 3a3f d09c 25be
000002b0: 5033 6d3f c21b 613f b378 cdbf ce32 0ac0
000002c0: 7f80 8dbf cfd3 cebf 99a4 76bf dc34 793e
000002d0: c268 1c3f a8ce 03c0 0b3c adbf 588c 8ebd
000002e0: e70d b8be 5043 b33f 1446 1c3e cdcd b3bf
000002f0: 04e9 893f c18a 6ebf 2258 20bf db2a a83e
00000300: 876e cb3e 6941 c13d 6a9a 2e3f 972c ddbf
00000310: 1a02 e73f fddd 12bc 100d bbbf d1d7 09bf
00000320: 8ff0 9dbf 7ed9 993d 8c07 adbf b27e f4be
00000330: f4bb 973f 9f60 19be 04fc 67bf 7ae8 37bf
00000340: f4cf 37bf bd11 5dbf 094e a43f 8e81 2e3f
00000350: 9fd2 75be c81e 0a3e b4a1 b4be 1e9d 14be
00000360: a111 59bf 7204 993f 6cfc 143e 0763 0240
00000370: 8943 aa3f 08c2 98bf 41b9 f23d 92a9 c6bf
00000380: 84da a63e 1a01 99bf 9bb0 0dbe 56e5 1f3e
00000390: b03a f3be 9ced b63e ce48 ce3e c460 3bbf
000003a0: 99df a3be a916 8c3f 30e8 1cbf 5f08 cb3f
000003b0: 457e 1dbe c194 95be 23aa 6b3f cdd5 1d3f
000003c0: 2372 86bf 071d b53f 0b4e 81be f516 df3f
000003d0: 6b77 30bf 631c 6dbf 040d 503e 1081 b6bd
000003e0: 1902 9b3f 7568 b13d 952e d33e 3349 cd3e
000003f0: f925 1e3f c738 863f 7054 ba3f 445b cdbd

center_bias.weight f4 [14395, 1]
-0.62940925 -0.28264123 -1.2425814 -1.036116 0.0053189523 1.2343413 -0.79000705 -0.3155291
1.0942184 0.2897425 0.41254133 0.16464633 -1.5463476 -1.1105748 -0.5038377 -0.30737644
0.026712753 -1.2587566 0.5150213 -0.3529417 -0.012641056 -0.7548789 0.5533703 -1.285652
-2.0282202 0.7220918 0.0752044 -0.501837 1.2677014 0.025439613 -0.114649706 2.0268133
-0.26219654 0.7291558 -1.5270525 -0.33896166 0.87470484 -0.7812152 1.3904717 -1.1391548
-0.96066004 0.76710826 -1.0088091 1.3138497 -2.5057507 0.3861858 -0.40932918 -1.4086361
1.8898592 2.015339 1.0705246 -1.8892157 -0.41105545 -0.16045468 0.09928274 -0.2729576
-0.33334666 0.078852855 0.72162956 0.34366563 -0.96468985 1.4630251 -0.6381999 0.5038863
-1.040378 0.08467859 -0.56992245 -1.077562 0.636826 -1.460874 1.5817002 -1.4773132
-1.6024654 -1.498092 0.9942829 -0.24551128 -1.1113449 0.6587347 0.5560869 -0.63835615
1.2164078 1.0180423 -2.7602363 -0.56730497 0.73464847 1.0005823 0.41563293 1.8439379
-0.8728309 -0.8816957 -0.96595997 -0.76023823 0.46059474 1.1923126 0.2710622 -0.31127322
0.42001703 -0.49056193 0.7140607 1.4413099 -0.63818914 0.4893556 -0.6337717 -0.46145782
0.01730437 0.40323147 -0.5124033 -0.33795503 -0.92978525 0.92363816 -0.37638432 1.1434069
0.59560364 0.88212335 -0.07275575 1.3551061 1.0269728 0.09568882 0.15432905 -0.40115115
1.7398942 -1.7696303 0.19524473 0.17383832 1.4369991 1.2751728 0.8231255 1.7511662
-0.5836555 1.770702 0.6692379 -0.6009734 -0.2339567 -0.37780815 -0.8111932 -0.18127006
-0.13208474 -1.3446462 0.3823326 -0.0023244047 0.65661824 0.6095039 0.529813 -2.3152509
0.4228337 -1.2061472 -1.0280943 1.184723 0.6006153 1.0261205 0.457128 -1.2508084
-1.0521137 -0.6556426 -0.9069163 0.04004247 0.1795877 -1.5892923 0.5562305 0.8327666
-0.9612212 -0.116144575 0.16918324 0.46756867 -0.73581666 0.4041559 1.4901403 -0.93777597
0.548883 -0.5654928 1.0015478 0.04179501 0.91643614 0.5558761 -0.14402387 -1.4197677
-0.27157432 2.1139798 1.0155559 -0.7713079 1.201176 1.3896397 1.5030086 -0.27378953
-0.65804726 0.44185168 -0.06923512 1.4019082 1.3142308 0.25101233 0.46927375 0.20090201
-0.28403002 -0.34075695 -1.0034887 -1.5114169 0.7774037 -1.2851101 -0.33770552 1.3246089
-0.84553707 0.024750834 0.60954607 -0.50119597 -0.751998 0.16034594 -0.36243296 -0.631904
1.7147917 -1.5559452 -0.56519693 -0.84795225 0.10508763 0.53534776 -0.8914702 -0.19002348
-0.086246416 -1.9167764 -2.337244 0.114868045 -1.1468443 -0.10790611 0.66271454 0.49854892
-0.48428184 -1.3785337 0.14475852 0.022558525 1.2815305 1.5270758 -0.31185552 1.0791008
-0.51597583 0.9284369 0.26737553 -0.1364102 1.2384758 -0.95054847 0.750664 0.98941797
0.9263194 -0.6006078 -1.7725471 2.1727073 0.541737 -0.7114778 0.15453957 0.7152276
0.5572493 0.42981833 -0.026508963 -1.5831422 0.45431834 -0.3246547 1.0333865 -1.1677122
00000000: f720 21bf 5ab6 90be e80c 9fbf 739f 84bf
00000010: 9b4a ae3b e5fe 9d3f e73d 4abf 088d a1be
00000020: 590f 8c3f 2159 943e 9e38 d33e 0c99 283e
00000030: b8ee c5bf 5127 8ebf 82fb 00bf 7260 9dbe
00000040: b4d4 da3c f01e a1bf 70d8 033f c6b4 b4be
00000050: 6f1c 4fbc be3f 41bf ada9 0d3f 3f90 a4bf
00000060: 5cce 01c0 02db 383f c404 9a3d 6478 00bf
00000070: 0a44 a23f bc66 d03c 77cd eabd 4fb7 0140
00000080: a03e 86be f4a9 3a3f 7576 c3bf 628c adbe
00000090: a8ec 5f3f b8fd 47bf fafa b13f d3cf 91bf
000000a0: d1ed 75bf 3561 443f a820 81bf 3a2c a83f
000000b0: 385e 20c0 25ba c53e 9893 d1be 304e b4bf
000000c0: e8e6 f13f 50fb 0040 f306 893f d2d1 f1bf
000000d0: dc75 d2be 3b4e 24be c054 cb3d 19c1 8bbe
000000e0: 6aac aabe 9b7d a13d b7bc 383f f1f4 af3e
000000f0: eaf5 76bf 6844 bb3f 1261 23bf b1fe 003f
00000100: 1b2b 85bf f86b ad3d 70e6 11bf 8ded 89bf
00000110: 0707 233f ebfd babf 2775 ca3f 9918 bdbf
00000120: 961d cdbf 7bc1 bfbf 5389 7e3f 4f67 7bbe
00000130: 8d40 8ebf d6a2 283f b65b 0e3f 4f6b 23bf
00000140: 40b3 9b3f 364f 823f b6a7 30c0 e63a 11bf
00000150: ec11 3c3f 1513 803f d7cd d43e 2806 ec3f
00000160: d971 5fbf cfb6 61bf 2749 77bf f99e 42bf
00000170: 13d3 eb3e b39d 983f aac8 8a3e 345f 9fbe
00000180: 790c d73e ef2a fbbe afcc 363f d87c b83f
00000190: 5d60 23bf d18c fa3e dd3e 22bf 3344 ecbe
000001a0: e5c1 8d3c 5b74 ce3e dd2c 03bf 7108 adbe
000001b0: 6806 6ebf 8d73 6c3f 72b5 c0be 285b 923f
000001c0: 7b79 183f d6d2 613f f700 95bd 1e74 ad3f
000001d0: d873 833f 80f8 c33d 6f08 1e3e af63 cdbe
000001e0: dab4 de3f 3f83 e2bf 3cee 473e ac02 323e
000001f0: 96ef b73f dd38 a33f 5ab8 523f 3726 e03f
00000200: 726a 15bf 5da6 e23f 2d53 2b3f 65d9 19bf
00000210: 5892 6fbe 1270 c1be 5caa 4fbf dc9e 39be
00000220: 3941 07be 5e1d acbf 19c1 c33e 0a55 18bb
00000230: 2218 283f 7308 1c3f d3a1 073f 122d 14c0
00000240: a97d d83e 0863 9abf 9898 83bf 01a5 973f
00000250: edc1 193f eb57 833f ae0c ea3e 7d1a a0bf
00000260: a9ab 86bf 32d8 27bf ab2b 68bf 9303 243d
00000270: d7e5 373e ee6d cbbf 1f65 0e3f 3130 553f
00000280: 9812 76bf 35dd edbd 5f3e 2d3e 2965 ef3e
00000290: 7b5e 3cbf 86ed ce3e ebbc be3f 1612 70bf
000002a0: 9983 0c3f 23c4 10bf b832 803f 3f31 2b3d
000002b0: 8f9b 6a3f e54d 0e3f fe7a 13be f3ba b5bf
000002c0: ca0b 8bbe 724b 0740 bcfd 813f 6f74 45bf
000002d0: 23c0 993f b7df b13f 9662 c03f 242e 8cbe
000002e0: c975 28bf 623a e23e 25cb 8dbd ba71 b33f
000002f0: b738 a83f b084 803e a644 f03e 42b9 4d3e
00000300: 626c 91be b277 aebe 5172 80bf 1c76 c1bf
00000310: ee03 473f 7d7e a4bf bde7 acbe c98c a93f
00000320: 1e75 58bf 43c2 ca3c 360b 1c3f 614e 00bf
00000330: f182 40bf ba31 243e d090 b9be 76c4 21bf
00000340: 4b7e db3f 3629 c7bf bfb0 10bf 6613 59bf
00000350: 2f38 d73d 8d0c 093f 6437 64bf 8495 42be
00000360: f6a1 b0bd ee58 f5bf 6895 15c0 f03f eb3d
00000370: cbcb 92bf e1fd dcbd a9a7 293f ce41 ff3e
00000380: caf3 f7be cb73 b0bf 943b 143e a8cc b83c
00000390: 3109 a43f 3877 c33f 87ab 9fbe fa1f 8a3f
000003a0: fe16 04bf 0aae 6d3f 72e5 883e 1eaf 0bbe
000003b0: 6086 9e3f 2557 73bf 842b 403f 7f4a 7d3f
000003c0: 4523 6d3f 6fc1 19bf d3e2 e2bf a30d 0b40
000003d0: 47af 0a3f 6923 36bf 9f3f 1e3e 2819 373f
000003e0: e4a7 0e3f 2611 dc3e 5329 d9bc 67a4 cabf
000003f0: 6a9c e83e 2439 a6be 0246 843f 9877 95bf

outside_bias.weight f4 [14395, 1]
2.6658158 -1.311095 -0.8700789 0.2988997 1.3550591 0.28072223 -0.60325134 1.4506787
-0.45052215 -0.5600444 0.25550193 -1.1519412 -0.20245673 -1.2138885 -0.009430074 -1.6073258
-0.13098663 -0.12130865 1.1942935 -0.13878189 -0.8821948 -1.2158698 -0.44835714 0.10480013
-0.4775258 0.4764697 0.5067629 1.765286 -1.3337183 -0.19863226 -0.70968056 0.47218835
-1.6742032 1.6802001 -0.008468672 -0.033533353 -0.6084324 0.13153765 -0.5318951 0.8711247
-0.33489808 1.3102804 1.9625717 -0.74717885 -0.05591786 0.5893019 0.9110115 0.108699135
0.24131408 -0.22630265 1.2635974 -0.042042322 1.2583252 -0.6940407 -0.20283009 1.1924248
1.2136552 1.0967104 1.0907437 -1.7013671 0.48679012 0.046339273 -0.16244613 -0.5725284
0.7648879 -2.191232 -1.1525692 -1.4973347 0.088234134 0.06343489 1.5758102 0.80741596
0.56224096 -0.41906643 -0.74925256 0.22799516 0.3240343 -0.5551236 -0.5589672 -1.5904686
0.57946825 0.6289348 -1.6892484 0.3952036 1.6096548 1.2415009 -0.7464986 -0.36164406
-1.0607516 1.4444807 -1.420793 1.6794575 -0.48438635 0.1257451 -0.5715599 0.5330798
0.63525325 1.6002247 -0.9445451 1.3789583 0.35109925 -0.83149797 -0.17895433 0.83373016
-0.5138252 1.1320686 0.1847256 -0.8093691 -0.2541648 0.29738653 0.24862538 0.13505916
-0.071104966 0.1537277 -0.33033502 0.5222606 -0.25654468 0.91126645 -0.6967229 1.3887423
1.037122 -0.23585445 -0.58615994 0.33227092 0.90845096 -1.7402593 -0.32628572 -0.18150377
0.041209172 1.6725936 -0.9179257 1.1293175 -0.5449005 0.7175299 0.20338327 0.36468574
0.08409257 -0.2799787 -0.039303806 1.0276248 0.2167596 -0.043456025 -2.8401728 -0.5320836
-0.5798165 -0.25099924 0.341556 1.9393374 -0.11190651 0.62453526 0.9140987 -0.33265093
0.71348244 0.77001446 0.74176204 -1.6208174 1.0859351 -0.087729275 1.171912 -0.5020656
1.2960472 0.1490079 0.12019293 -0.23281932 0.4643791 0.2999336 0.47856942 2.942959
-0.54529995 0.2252474 -0.9942472 0.15414444 -0.3525839 -0.2851478 -1.5950494 -0.32126245
0.025850324 0.5552762 1.0305425 0.87188077 0.7301033 -1.1773201 -0.49021342 -0.581426
-0.010812896 -0.68148416 1.4133078 -2.0402694 -0.6689682 -0.3761011 0.8684374 -0.45694768
-1.5226331 -0.22837771 0.72515607 -0.116554685 0.20150888 -0.9450404 0.9634751 1.271138
-0.45587084 -1.8461956 0.060182255 -0.77249056 -1.1268919 2.0207102 0.06427199 -0.8464099
0.652043 -1.150168 -0.027168183 0.28866437 1.0428584 -0.091442406 0.06549324 -1.7560346
1.2046266 0.7875609 0.028819853 0.95024335 1.4535284 0.39522806 0.39390218 0.83662164
-0.58366483 0.6804426 -1.887231 -0.24205022 1.0674946 0.6684327 -0.5116417 -0.43903512
1.2504103 0.037195604 -1.5961994 -0.5753273 -0.33458185 0.3822502 -0.58147746 -0.16736187
-0.29192808 -0.31652656 0.2768153 1.1144967 -1.4699929 -0.2834027 0.88143975 0.8486134
-0.23677498 -2.3051105 -0.3974751 0.57272136 -0.020766722 -0.19015673 0.25966203 0.13784505
00000000: ba9c 2a40 f6d1 a7bf 7ebd 5ebf 6209 993e
00000010: 9472 ad3f d3ba 8f3e ae6e 1abf d7af b93f
00000020: d7aa e6be 125f 0fbf 26d1 823e cf72 93bf
00000030: d150 4fbe b360 9bbf 9980 1abc dabc cdbf
00000040: 5c21 06be ab70 f8bd 9cde 983f d71c 0ebe
00000050: 85d7 61bf 9fa1 9bbf 118f e5be 73a1 d63d
00000060: 437e f4be d6f3 f33e 37bb 013f e4f4 e13f
00000070: 48b7 aabf 4166 4bbe a0ad 35bf acc2 f13e
00000080: 4a4c d6bf cc10 d73f 2fc0 0abc 455a 09bd
00000090: 3ac2 1bbf ceb1 063e 472a 08bf 0702 5f3f
000000a0: c377 abbe 45b7 a73f 8d35 fb3f 1d47 3fbf
000000b0: 200a 65bd 7ddc 163f 0d38 693f a79d de3d
000000c0: 0a1b 773e e2bb 67be 8fbd a13f 9234 2cbd
000000d0: cd10 a13f a7ac 31bf b1b2 4fbe 60a1 983f
000000e0: 0e59 9b3f 0261 8c3f 7d9d 8b3f 66c6 d9bf
000000f0: 8e3c f93e 40ce 3d3d 4758 26be 3991 12bf
00000100: b2cf 433f 253d 0cc0 6387 93bf aaa8 bfbf
00000110: 19b4 b43d 27ea 813d 26b4 c93f d0b2 4e3f
00000120: 06ef 0f3f e08f d6be 04cf 3fbf 9077 693e
00000130: d3e7 a53e 951c 0ebf 7918 0fbf 7a94 cbbf
00000140: 0858 143f df01 213f 4b39 d8bf 2058 ca3e
00000150: 2b09 ce3f 80e9 9e3f 881a 3fbf 6929 b9be
00000160: b5c6 87bf bee4 b83f 8cdc b5bf 77f8 d63f
00000170: 7d01 f8be 53c3 003e c051 12bf eb77 083f
00000180: f59f 223f 2ad4 cc3f b5cd 71bf b581 b03f
00000190: 48c3 b33e 0ddd 54bf ce3f 37be 576f 553f
000001a0: 0c8a 03bf a0e7 903f b528 3d3e d032 4fbf
000001b0: e321 82be 0c43 983e a797 7e3e f34c 0a3e
000001c0: 7b9f 91bd cb6a 1d3e ac21 a9be dfb2 053f
000001d0: d359 83be c248 693f 6f5c 32bf 4fc2 b13f
000001e0: 6ac0 843f d483 71be 940e 16bf 6a1f aa3e
000001f0: 3e90 683f d1c0 debf ec0e a7be 20dc 39be
00000200: f3ca 283d 8c17 d63f 2efd 6abf 7a8d 903f
00000210: 997e 0bbf 0ab0 373f b443 503e 17b8 ba3e
00000220: ba38 ac3d 5e59 8fbe 07fd 20bd 3689 833f
00000230: 3bf6 5d3e f2fe 31bd 64c5 35c0 a136 08bf
00000240: db6e 14bf f982 80be 6ee0 ae3e 353c f83f
00000250: 3e2f e5bd 8be1 1f3f 5f02 6a3f 3951 aabe
00000260: c9a6 363f ab1f 453f 1ee4 3d3f f276 cfbf
00000270: ecff 8a3f 68ab b3bd 3601 963f 5f87 00bf
00000280: e0e4 a53f 8795 183e b627 f63d 3068 6ebe
00000290: 19c3 ed3e e690 993e 0d07 f53e 7159 3c40
000002a0: c798 0bbf 41a7 663e fc86 7ebf 0ad8 1d3e
000002b0: e085 b4be e4fe 91be 942a ccbf 837c a4be
000002c0: 0fc4 d33c 9526 0e3f d1e8 833f 9433 5f3f
000002d0: 0de8 3a3f 6db2 96bf 41fd fabe 56d8 14bf
000002e0: 9328 31bc bf75 2ebf 45e7 b43f c693 02c0
000002f0: 8041 2bbf 5390 c0be ea51 5e3f 0cf5 e9be
00000300: a4e5 c2bf d9db 69be d4a3 393f 39b4 eebd
00000310: 5858 4e3e 2bee 71bf 4ea6 763f a6b4 a23f
00000320: e767 e9be 2350 ecbf ab81 763d f1c1 45bf
00000330: fe3d 90bf 5153 0140 08a1 833d 52ae 58bf
00000340: 4aec 263f b438 93bf cf8f debc d1cb 933e
00000350: 627c 853f 2846 bbbd 5221 863d bec5 e0bf
00000360: 3431 9a3f 979d 493f 9d17 ec3c 2643 733f
00000370: 380d ba3f 555b ca3e 8cad c93e d62c 563f
00000380: 0f6b 15bf 7c31 2e3f c990 f1bf 03dc 77be
00000390: aaa3 883f 681e 2b3f f3fa 02bf 36c9 e0be
000003a0: 720d a03f 6b5a 183d 4350 ccbf a648 13bf
000003b0: 504e abbe 4cb6 c33e b5db 14bf e960 2bbe
000003c0: 9977 95be c50f a2be bcba 8d3e d4a7 8e3f
000003d0: ba28 bcbf 291a 91be 09a6 613f ba3e 593f
000003e0: 2475 72be ee86 13c0 db81 cbbe de9d 123f
000003f0: f91e aabc 72b8 42be 6cf2 843e 4127 0d3e
