app/models/skipgram.model (torch, 231902 bytes, 2 tensors)

embedding_center.weight f4 [14395, 2]
-0.9560593 -1.3883147 0.23046829 -1.7388519 -0.9105428 -2.2666366 -1.1970267 -1.3178308
0.05709549 -0.8553577 -0.4630646 0.87974095 1.4999418 1.745791 0.06645058 -0.14150167
1.5802494 0.49036643 0.6683846 0.4623166 0.45982128 -0.54694843 1.2709004 0.8162865
0.22832623 0.3807567 0.7765212 0.3754399 0.5839213 2.1157115 -0.045294877 0.3049031
0.75227153 0.70289 -0.12546453 1.82696 -1.0167477 -0.35246447 -1.5094911 -0.39819646
1.0603703 0.5373083 -0.43626684 2.5560708 0.88373 -0.99368703 0.14345066 0.17294875
1.8869933 -1.5508333 -0.27621603 1.8918865 0.036660567 -0.06320748 -0.36128348 2.2087188
0.010185394 -0.05636231 0.69192636 -1.0808908 0.64324844 -0.34564215 -0.008390838 -0.843366
-0.3199704 -0.6202202 -0.7565118 -1.6582309 -0.17083652 -1.2181098 -0.012237443 0.028373117
-1.2696389 -0.43400165 0.11819074 -2.061558 -1.2283235 0.8709998 -0.0333329 1.1749225
-1.4583184 -0.6337413 0.87493354 -0.59581506 -2.4385874 -0.6341969 -0.3947582 -0.11543435
1.1099693 -0.11832341 -1.2181382 -0.14250915 1.238665 -0.1241465 0.54909676 0.8716648
-0.8650816 -2.2001948 0.7820427 -0.48370385 -1.4146426 1.7849369 0.6461815 0.8979872
0.6984585 0.69874513 -0.66327244 -0.41699904 0.52917755 1.4418434 -0.23442464 -1.3220218
1.0611789 0.32782364 -0.7043498 1.1266664 -0.9717065 -1.5176839 1.4491283 1.5395739
1.2077794 0.51107943 -0.19311492 0.7367978 0.3919101 0.08420375 1.5361717 2.239831
1.2311391 0.0311808 -0.21663168 -0.44932547 -0.21167544 -0.11790847 0.27542672 -1.0449698
-0.46083736 0.80824953 0.39538106 -0.33113027 0.7301771 -0.96201944 0.2757103 0.64449483
-0.27284223 0.13291161 0.36729097 -0.3038349 -0.44218233 -2.3185706 0.11546166 -1.0014831
-1.359797 0.7197391 -1.6656053 0.9597099 1.0455372 0.5653536 -0.23671013 -0.48231852
-0.6612868 -0.014601802 -0.06277116 -0.2416991 0.82106274 1.2620169 0.881686 1.0465425
0.9825296 -1.8315263 0.6964339 0.46374747 0.39887407 -0.25613606 -0.66202754 0.0845216
0.570427 1.2299719 0.023446707 -0.3710442 0.72342443 -0.053131994 -0.5382909 0.49864468
-0.46525946 -1.257627 -2.917886 -1.0436316 0.4377524 0.46650887 1.5575397 0.04462081
0.35354078 -1.36852 -0.32830444 0.56650215 -1.5821604 0.17975906 -0.14186476 -0.008167005
-0.88153195 0.04397912 0.88681614 0.94010544 -1.1515337 0.88215053 -0.025721086 -1.3372232
1.4813329 2.0531642 0.33851025 0.08222398 -0.5160218 -0.2992867 -0.6104737 -1.710429
0.1499086 0.24334891 -0.38368398 0.7499467 0.559639 0.10184886 0.2155039 0.62486076
-0.724691 -3.0552156 0.38280296 -0.38604432 1.3280468 0.17424108 1.7046111 -2.4640903
-1.0779362 0.21254723 -0.3960274 0.13029303 -0.8149786 -0.9529066 -1.255631 -0.9848252
-0.15318777 -1.7815274 -0.25079218 0.7838458 -0.73303163 -0.6466867 0.13706991 0.06552585
1.0996287 0.66935974 0.2606154 0.2706064 -0.38083887 -0.1118921 -1.3109034 -0.2039958
00000000: 4dc0 74bf 4cb4 b1bf e1ff 6b3e b392 debf
00000010: 5519 69bf 9310 11c0 2c38 99bf aeae a8bf
00000020: f6dc 693d b9f8 5abf ce16 edbe b436 613f
00000030: 18fe bf3f 1476 df3f 3e17 883d d0e5 10be
00000040: 9d45 ca3f 4f11 fb3e 411b 2b3f c3b4 ec3e
00000050: b26d eb3e d004 0cbf ddac a23f 27f8 503f
00000060: 5ace 693e 8bf2 c23e 18ca 463f a939 c03e
00000070: de7b 153f d167 0740 1f87 39bd 421c 9c3e
00000080: de94 403f 99f0 333f c679 00be d3d9 e93f
00000090: ca24 82bf 3976 b4be 0137 c1bf 68e0 cbbe
000000a0: 37ba 873f 098d 093f 5e5e dfbe aa96 2340
000000b0: 213c 623f 4662 7ebf bbe4 123e 7a19 313e
000000c0: ff88 f13f b581 c6bf 306c 8dbe 5629 f23f
000000d0: 6429 163d ec72 81bd 26fa b8be a65b 0d40
000000e0: a4e0 263c 2adc 66bd 1622 313f a15a 8abf
000000f0: eeab 243f 02f8 b0be ba79 09bc d6e6 57bf
00000100: 29d3 a3be c0c6 1ebf c2aa 41bf e940 d4bf
00000110: c5ef 2ebe 06eb 9bbf 8e7f 48bc bd6e e83c
00000120: 8783 a2bf 7735 debe fd0d f23d 91f0 03c0
00000130: b439 9dbf d8f9 5e3f 1488 08bd dc63 963f
00000140: 2daa babf df3c 22bf a5fb 5f3f 5687 18bf
00000150: d111 1cc0 ba5a 22bf bf1d cabe d868 ecbd
00000160: 7913 8e3f 8b53 f2bd f4eb 9bbf ebed 11be
00000170: 938c 9e3f 8540 febd 9b91 0c3f 6d25 5f3f
00000180: fd75 5dbf fecf 0cc0 f333 483f 08a8 f7be
00000190: 0213 b5bf d078 e43f 276c 253f 7de2 653f
000001a0: 2dce 323f f6e0 323f 39cc 29bf e680 d5be
000001b0: 2e78 073f 538e b83f 030d 70be 0338 a9bf
000001c0: b6d4 873f 80d8 a73e 4550 34bf 9b36 903f
000001d0: c2c1 78bf 7743 c2bf 097d b93f c210 c53f
000001e0: 8498 9a3f 1ad6 023f ebbf 45be c89e 3c3f
000001f0: 71a8 c83e 0473 ac3d 46a1 c43f 6459 0f40
00000200: f795 9d3f e16e ff3c b2d4 5dbe fd0d e6be
00000210: 72c1 58be ff79 f1bd bb04 8d3e 92c1 85bf
00000220: e0f2 ebbe 71e9 4e3f 636f ca3e e889 a9be
00000230: e3ec 3a3f e846 76bf e729 8d3e 9dfd 243f
00000240: fab1 8bbe fb19 083e 900d bc3e 3f90 9bbe
00000250: b965 e2be 7663 14c0 2a77 ec3d 9930 80bf
00000260: d40d aebf d240 383f 8e32 d5bf 8caf 753f
00000270: 2ad4 853f 03bb 103f 2464 72be 74f2 f6be
00000280: 174a 29bf 663c 6fbc 2a8e 80bd f87f 77be
00000290: 2b31 523f c589 a13f 2cb6 613f 1bf5 853f
000002a0: 0f87 7b3f 746f eabf 7e49 323f 4f70 ed3e
000002b0: 3939 cc3e 4424 83be a37a 29bf a919 ad3d
000002c0: 8107 123f b86f 9d3f 4f13 c03c 81f9 bdbe
000002d0: 5832 393f efa0 59bd 6fcd 09bf 5b4e ff3e
000002e0: 7d36 eebe ecf9 a0bf a5be 3ac0 b895 85bf
000002f0: 1521 e03e 40da ee3e 765d c73f 4fc4 363d
00000300: 4c03 b53e aa2b afbf 8517 a8be 4906 113f
00000310: 3b84 cabf c212 383e ff44 11be e7ce 05bc
00000320: 14ac 61bf 7323 343d 6206 633f c0aa 703f
00000330: 7565 93bf 9ed4 613f 07b5 d2bc 212a abbf
00000340: 519c bd3f 0b67 0340 3751 ad3e 0c65 a83d
00000350: 011a 04bf 1b3c 99be 0148 1cbf 56ef dabf
00000360: a481 193e 7530 793e 3a72 c4be 82fc 3f3f
00000370: 8044 0f3f 2396 d03d 0ead 5c3e e0f6 1f3f
00000380: 5985 39bf a788 43c0 c0fe c33e 9aa7 c5be
00000390: 70fd a93f 416c 323e b230 da3f a8b3 1dc0
000003a0: d0f9 89bf fba5 593e 1ac4 cabe 896b 053e
000003b0: 70a2 50bf b0f1 73bf 84b8 a0bf 811d 7cbf
000003c0: 41dd 1cbe 1709 e4bf d567 80be 1eaa 483f
000003d0: f6a7 3bbf 428d 25bf 0e5c 0c3e 6b32 863d
000003e0: a2c0 8c3f 295b 2b3f 626f 853e ec8c 8a3e
000003f0: 50fd c2be af27 e5bd afcb a7bf 46e4 50be

embedding_outside.weight f4 [14395, 2]
-0.083118714 -0.80145055 -1.6930779 -1.3150265 0.4721509 -1.0166409 -1.2435147 0.47260135
-0.14942174 0.05673552 -0.27318442 -1.7235142 -0.5539615 -0.30818632 -1.2196689 -1.4650731
-1.9275482 0.17197585 1.5076659 -0.6737352 0.6876494 0.1475615 1.4224508 0.28091723
-0.7237748 2.7444837 0.4725056 0.56010437 -0.16057408 -1.0606375 0.1728207 -0.8369896
-0.51887363 0.94626606 0.3019881 0.54818237 -1.1965084 -0.31239244 -0.6084238 -0.6286115
0.13988753 0.58945876 1.0841823 -1.2155797 -1.4553071 0.025689024 0.68747824 2.431565
1.7303685 0.25497422 0.27683225 -1.1307192 -0.5363325 0.16344835 -0.8673804 0.66332334
-0.23841344 -0.8787556 -0.1551355 -0.5389445 -0.48288444 0.3392313 0.7935603 0.22511354
-1.4697617 -1.1888461 -1.17999 -1.1656103 -1.3773053 -0.5361279 0.0073967446 1.1390886
-0.30164075 -0.12980337 0.744516 -1.3913908 0.1735447 1.9346929 -0.6503464 -1.1891372
-1.9238473 -0.08986649 -0.30235806 -0.32053465 0.65512484 0.08552805 -1.6306098 -0.91172373
2.1379142 1.3346206 0.044867482 -0.68855184 0.67617476 1.1856927 -0.90230435 1.2913352
-0.1508879 -1.6176617 0.54895693 0.5924469 1.0956247 1.3137691 1.7287741 -0.05829918
0.67748773 -0.20621756 -0.0005430625 0.10203516 -1.4706103 -1.1327219 -0.9001167 -0.83253545
0.6980533 1.6277887 0.35498863 -1.0616162 1.0829306 2.3487902 0.24964435 0.45134792
-0.54562867 -0.5951644 -0.24265471 -0.108309105 0.28786448 -0.6953721 -1.0659373 -0.66439146
-1.9450257 -0.9242176 0.16942595 -1.4999722 -0.35373718 -0.92161274 -1.0468737 -0.9012057
-0.9287139 -2.332366 1.5696547 -1.43993 0.85274845 1.8455132 -0.3891883 -0.73878187
-0.16396421 -0.012480894 0.20133181 -0.07184266 -0.8113789 -1.4783363 -0.9656402 0.20832947
0.49955335 -0.7769429 0.71000487 -0.14811571 0.506873 -0.5756356 -1.0671678 -0.5197637
-0.5655483 0.31782454 -2.578048 -0.30636448 0.50022244 0.22381574 0.24944974 -0.31690922
-0.102709554 -1.5179592 -0.54739225 -0.6711731 -0.4881303 0.07359119 -1.0622883 0.2538022
-0.45035487 -0.33835968 0.33624148 -2.1243513 1.6400633 -0.8682056 0.4120535 -0.9309756
0.94149405 -3.0537283 -0.6362579 -0.96055436 -1.1652362 -0.17955512 -0.071622685 1.7622558
-0.12662104 -0.9480088 0.9198543 1.0089935 0.488991 0.6851537 0.6059963 -0.57732666
-0.70395076 -1.4819815 -0.21595278 0.35719922 0.8178445 1.4229046 0.82855284 0.9987092
1.0135168 0.38064754 0.43221623 -0.89071083 0.28912148 0.957238 -0.91822785 -0.8147791
0.45981413 -0.9102087 -1.8934041 -1.1810212 0.33310446 2.2301424 2.7221637 0.5896801
-0.44704255 -0.8797663 -0.04185711 0.093919314 -0.5225117 -0.9149039 -0.47511062 -0.5582832
-0.32836872 0.18795408 -0.5826514 -1.5975882 -0.5092614 -1.2663043 0.85417306 0.12189001
-0.32318118 -0.72927725 -0.33970904 1.221559 1.6924292 -0.77879274 1.4454266 1.8658664
-0.16575292 -0.7497402 -0.50981265 -2.0033486 0.25075796 0.05785915 1.5064306 0.78135574
00000000: 253a aabd dd2b 4dbf c7b6 d8bf ca52 a8bf
00000010: c3bd f13e 4a21 82bf 7d2b 9fbf cef8 f13e
00000020: 0302 19be 8163 683d d4de 8bbe 1d9c dcbf
00000030: 6cd0 0dbf 99ca 9dbe 1c1e 9cbf 8487 bbbf
00000040: e6b9 f6bf 701a 303e 32fb c03f e979 2cbf
00000050: cb09 303f 5d1a 173e de12 b63f 62d4 8f3e
00000060: 4e49 39bf 9fa5 2f40 41ec f13e 0063 0f3f
00000070: 886d 24be f8c2 87bf e9f7 303e f344 56bf
00000080: e7d4 04bf 7e3e 723f 2f9e 9a3e ae55 0c3f
00000090: 3027 99bf e7f1 9fbe aac1 1bbf afec 20bf
000000a0: ad3e 0f3e c5e6 163f 7cc6 8a3f 1e98 9bbf
000000b0: 8147 babf ca71 d23c 93fe 2f3f c39e 1b40
000000c0: b77c dd3f fb8b 823e f5bc 8d3e 68bb 90bf
000000d0: 164d 09bf 015f 273e a40c 5ebf 8fcf 293f
000000e0: a722 74be 21f6 60bf d7db 1ebe 44f8 09bf
000000f0: a13c f7be baaf ad3e c526 4b3f 2a84 663e
00000100: 2721 bcbf 1c2c 98bf ea09 97bf b832 95bf
00000110: 8a4b b0bf ae3f 09bf 6460 f23b a8cd 913f
00000120: a870 9abe 2deb 04be 9a98 3e3f 1819 b2bf
00000130: b4b5 313e 04a4 f73f 1a7d 26bf a635 98bf
00000140: a140 f6bf ec0b b8bd adce 9abe 1e1d a4be
00000150: 43b6 273f 5529 af3d d2b7 d0bf ba66 69bf
00000160: 96d3 0840 d9d4 aa3f f7c6 373d ef44 30bf
00000170: ca19 2d3f c7c4 973f 6bfd 66bf 794a a53f
00000180: 5c82 1abe 8a0f cfbf 7188 0c3f 9aaa 173f
00000190: 6e3d 8c3f 9629 a83f 7848 dd3f 1fcb 6ebd
000001a0: d66f 2d3f b22a 53be 4f5c 0eba cff7 d03d
000001b0: f53c bcbf 08fd 90bf 0c6e 66bf 0b21 55bf
000001c0: 9fb3 323f 615b d03f 12c1 b53e 0ae3 87bf
000001d0: 789d 8a3f 9452 1640 c5a2 7f3e 1317 e73e
000001e0: 52ae 0bbf b25c 18bf 7a7a 78be 2ad1 ddbd
000001f0: f962 933e e803 32bf a270 88bf 8f15 2abf
00000200: 9af6 f8bf 8699 6cbf ff7d 2d3e 17ff bfbf
00000210: 0a1d b5be d0ee 6bbf f5ff 85bf 6bb5 66bf
00000220: 32c0 6dbf 7c45 15c0 72ea c83f a04f b8bf
00000230: b94d 5a3f c739 ec3f b043 c7be cf20 3dbf
00000240: 3ce6 27be aa7c 4cbc ed29 4e3e 3f22 93bd
00000250: 87b6 4fbf 203a bdbf 3234 77bf 5254 553e
00000260: 75c5 ff3e bbe5 46bf e1c2 353f a5ab 17be
00000270: 6ec2 013f db5c 13bf f498 88bf 3c0f 05bf
00000280: c6c7 10bf e6b9 a23e bdfe 24c0 cedb 9cbe
00000290: 940e 003f f42f 653e c16f 7f3e ed41 a2be
000002a0: 6359 d2bd 7d4c c2bf e621 0cbf 00d2 2bbf
000002b0: 37ec f9be fab6 963d 10f9 87bf 5df2 813e
000002c0: ea94 e6be 7b3d adbe d827 ac3e 5ff5 07c0
000002d0: 98ed d13f b942 5ebf adf8 d23e 6b54 6ebf
000002e0: c105 713f 4970 43c0 cce1 22bf e4e6 75bf
000002f0: 7626 95bf 4cdd 37be eaae 92bd 9991 e13f
00000300: f2a8 01be b4b0 72bf 927b 6b3f b326 813f
00000310: 075d fa3e 3c66 2f3f 9322 1b3f aecb 13bf
00000320: 1e36 34bf 92b1 bdbf ba22 5dbe d1e2 b63e
00000330: 425e 513f bd21 b63f 0a1c 543f 68ab 7f3f
00000340: ebba 813f 3ce4 c23e 724b dd3e a005 64bf
00000350: bb07 943e 8d0d 753f fb10 6bbf 5d95 50bf
00000360: c26c eb3e 7003 69bf 115b f2bf b42b 97bf
00000370: ab8c aa3e a7ba 0e40 ee37 2e40 46f5 163f
00000380: c3e2 e4be 5d38 61bf 5c72 2bbd c558 c03d
00000390: 54c3 05bf 2437 6abf b341 f3be a6eb 0ebf
000003a0: f21f a8be 0977 403e a428 15bf c57d ccbf
000003b0: f55e 02bf 4216 a2bf 16ab 5a3f 78a1 f93d
000003c0: 0178 a5be eab1 3abf 58ee adbe 0c5c 9c3f
000003d0: 85a1 d83f f65e 47bf bd03 b93f b6d4 ee3f
000003e0: 22bb 29be f9ee 3fbf 1583 02bf dd36 00c0
000003f0: 5963 803e b7fd 6c3d b8d2 c03f ee06 483f
