app/models/skipgramneg.model (torch, 231920 bytes, 2 tensors)

embedding_center.weight f4 [14395, 2]
00000000: d6b8 39be c3e3 973f 1acf 673f ff64 b4bd
00000010: 96b8 e13f aebe cf3e 7a9d d13d c4d8 edbf
00000020: 2b6e 8fbf c561 7f3f f9bd d53f 6048 a3be
00000030: df13 53bf 38f7 e5bf 4bb6 38be 1495 6c3f
00000040: 6044 073f a9a8 623f 42f2 3f3e 348d 9ebe
00000050: 0223 60be 7a01 e53d 0663 5bbf 5201 ccbe
00000060: a54b ca3e fd37 75be 5ad9 15bf 8ebc 383e
00000070: b6a1 19bf 65a4 a13d 4b34 6abf c3f3 343e
00000080: 264d 3f3f 3bbd a0be 6c18 8bbf a2a1 41be
00000090: 183e b13f 086e c43f e325 6c3f 149c 87be
000000a0: 24fd edbe d091 e1bf 5857 1abe 0fcc b73e
000000b0: 7976 febf 869b 393f 4f2f bf3e 901d 593f
000000c0: 787e 89bf 1fbe 0c3e 0eb7 193e d8cb ba3d
000000d0: 80c4 bbbf d91a b63e 0ff5 e13f aa2b 5f3f
000000e0: e474 043f 257b d93f 2a8f bdbf e9f6 5bbf
000000f0: 516b a73e a767 4c3e fa3b 8dbe 8d10 14bf
00000100: aaf0 f8bf 9dfd 973f 6c05 e13f 0513 f53c
00000110: fc0c 603f bb1f 4bbf 8689 1d3f 8475 d03f
00000120: d412 073c 1a83 713f b901 1ebf 980d cbbd
00000130: 36ec 2340 d1ae e1bc c43e cf3d 7f00 373f
00000140: 4606 8bbe fee8 7ebf b246 18bf 89fc 20c0
00000150: 0950 ea3f 9bb8 92be e90b 883e 6691 e3bf
00000160: 63d6 39bf 70f9 0a3f 2eec 05c0 367c bd3e
00000170: 98af 583f 2c39 f9be d9fe 1e3f 51fd 00c0
00000180: 7177 4b3f 3607 dfbf 3c2e 4a3f 0ed9 0240
00000190: 6564 513f e594 acbd b374 99be d133 a83f
000001a0: 0f4e 82be 0a45 d23f a8fd 28bf a88c bebf
000001b0: 1b30 233f 89e7 95be 79bf ea3f 301f 043e
000001c0: b6e9 383f 06f9 223f fc29 b7be 5e1f 0ac0
000001d0: 5b42 85bf 17b9 09c0 1197 2cbe 24c8 96bf
000001e0: c110 3bbf ad62 b03e 1fbe fa3c 5bc4 1e40
000001f0: 7a72 babe 5de0 713f 8a67 c8be 9f99 5a3f
00000200: b57b 72be 4c68 07be a3df 9a3f 90b7 0140
00000210: 75e1 383f 6745 463e f1a4 a23e 64d1 ca3f
00000220: 5e52 61bf 7b61 fa3e dc6f 0240 2597 08c0
00000230: e532 f5be 5651 a33e d3d1 b7be be90 043f
00000240: 494c 0a40 84dc fbbe 4253 bfbe e7c4 7abf
00000250: 87dd 383e d99e 703e 54f0 39bf 42c2 653c
00000260: 9fcf 9fbf f007 d1be 0fab b0be 0a8a c0bd
00000270: 16ee 2cbe 44d9 9c3f b389 aabf 497b 9dbe
00000280: 0fba 063f a361 5b3f 5691 0a40 5096 273f
00000290: 465e dabf 7197 a33f 8544 1d3e b3cb 5fbd
000002a0: 712e 93be 88da 2abf 8662 4e3f c9b6 b33e
000002b0: d2dd bfbd 4686 38bf 7061 683f a66a 9c3f
000002c0: bab1 6fbf 0d9f 793f 1eed 91bf 09cf 14bf
000002d0: 5120 7d3f e719 2e40 2fe9 eabe fa16 0dbf
000002e0: 28af 52bf 3077 11c0 19de 67bf 2122 33bf
000002f0: 73ab ec3e d6a7 8abd a0b7 c13e 485d d6bf
00000300: 2382 c53f e31c b13f b550 85bf 3326 9ebf
00000310: c4ee abbe b16c b2bf dc5a d0be fa1c 423f
00000320: 29da e5bf 6193 15c0 681c c8be 2326 4ebf
00000330: 8f42 e33f 276c 883e bf54 fabe 474c 273f
00000340: 9309 453f bf6c b7be 7db0 333f 90ad 8b3e
00000350: d485 993f 055b 5bbf 71f1 d33f af6e 3dbf
00000360: 4d20 fd3f 3e8f e83f 40f2 c13e b198 03c0
00000370: dde7 1cbf abe9 0f40 511e 78bf 5b4b 013f
00000380: 059e e83e 91dd b93d e2f2 83bf 55bc 433f
00000390: ccab 7fbf 6023 0ebf 9740 dbbb 28c3 693f
000003a0: 5a71 80bf e89f f83f 91eb 3cbf 9e79 a2bf
000003b0: f33b a13e 9fcb eabc 3cdb 233e a4fb 38bf
000003c0: 4084 8c3e 6071 473f 3fa9 febd f209 ad3f
000003d0: 4abc aebd 4832 863e 6365 9abf 0300 b2bf
000003e0: 4813 a93f 36c7 05bf a7a5 c9be 45c0 79bf
000003f0: 3e1a 91be 1704 c7be ad16 bcbf 3cf2 d6bd
-0.18136916 1.1866382 0.90550387 -0.08808326 1.7634456 0.40575165 0.102351144 -1.8581777
-1.1205496 0.9975856 1.66986 -0.31891155 -0.82452196 -1.796607 -0.18038289 0.92414975
0.52838707 0.88538605 0.18744758 -0.30967104 -0.21888354 0.11181922 -0.8569797 -0.39844757
0.39510837 -0.23947139 -0.5853478 0.18040678 -0.60012376 0.07892684 -0.9148604 0.17671113
0.74727094 -0.3139437 -1.0866828 -0.18909314 1.3847075 1.5346079 0.9224531 -0.26486266
-0.46482193 -1.7622623 -0.15072381 0.35897872 -1.9879905 0.72502935 0.3734078 0.84810734
-1.074172 0.137444 0.15011236 0.09120911 -1.4669342 0.35567358 1.7652911 0.87176
0.5174086 1.6990706 -1.4809315 -0.8592363 0.32699063 0.19961415 -0.2758482 -0.57837754
-1.9448445 1.1874272 1.757978 0.029916296 0.8751981 -0.7934529 0.6153797 1.6285863
0.008244235 0.9434067 -0.6172138 -0.09914702 2.5612922 -0.02754918 0.101193935 0.7148513
-0.27153224 -0.9957427 -0.5948287 -2.5154135 1.8305675 -0.28656468 0.26571587 -1.7778747
-0.72592753 0.5428686 -2.0925403 0.37008828 0.84642935 -0.4867643 0.62107617 -2.0154612
0.7947913 -1.7424076 0.789768 2.044498 0.81793815 -0.08426837 -0.29971847 1.3140813
-0.2545018 1.6427319 -0.6601205 -1.4886675 0.6374528 -0.2927821 1.8339683 0.12902522
0.72231615 0.6366123 -0.3577422 -2.1581645 -1.0410875 -2.151922 -0.16854502 -1.1779828
-0.7307244 0.34450284 0.030608235 2.4807346 -0.36415464 0.94482976 -0.39141494 0.8539066
-0.23680003 -0.1322338 1.2099499 2.0268288 0.7221902 0.19362412 0.31766465 1.5845151
-0.8801631 0.48902497 2.0380774 -2.1342251 -0.47890392 0.31897992 -0.3590227 0.5178336
2.160906 -0.49191678 -0.37368208 -0.979567 0.18053256 0.23498096 -0.72632337 0.014023365
-1.2485236 -0.40826368 -0.34505507 -0.09401329 -0.16887698 1.2253804 -1.3323272 -0.30758122
0.5262765 0.85695857 2.1651206 0.65463734 -1.706002 1.2780591 0.1535817 -0.054637622
-0.2874637 -0.667397 0.80619085 0.35100392 -0.09368481 -0.72079885 0.9077368 1.2220047
-0.93630564 0.9750832 -1.1400487 -0.5812841 0.98877436 2.720331 -0.4588103 -0.55113184
-0.8229852 -2.2728996 -0.9057327 -0.6997395 0.46224555 -0.067702934 0.37835407 -1.6747217
1.543034 1.383694 -1.0415255 -1.2355407 -0.335806 -1.393942 -0.4069432 0.75825465
-1.7957202 -2.3371203 -0.39084172 -0.8052694 1.7754687 0.26645014 -0.4889278 0.65350765
0.76967734 -0.35825154 0.70191175 0.27280855 1.1993966 -0.8568576 1.6558057 -0.73997015
1.9775482 1.8168714 0.37880135 -2.0561945 -0.61291295 2.248637 -0.9692126 0.5050561
0.4543306 0.090754636 -1.0308497 0.76459247 -0.99871516 -0.5552273 -0.0066910493 0.9131341
-1.0034592 1.94238 -0.73796946 -1.2693365 0.3149105 -0.028661547 0.160016 -0.72258973
0.2744465 0.7790737 -0.12434625 1.351866 -0.08532007 0.26210237 -1.2062191 -1.3906254
1.3209009 -0.52257097 -0.39384195 -0.97559005 -0.28340334 -0.38870308 -1.469442 -0.10495421

embedding_outside.weight f4 [14395, 2]
00000000: b6ef e1bd 7a3a 36bf c6f4 b5bf 1bc1 9dbd
00000010: 7135 65bf dcb0 de3e 78c0 a9be 9524 bf3f
00000020: 0a35 7ebf eba8 3c3e 0fa5 14c0 ed51 eb3e
00000030: 503a 1cbd 50c8 85bf cf6b 52bf d244 d2bd
00000040: 9d53 8f3f 78a1 833f f905 ba3e a740 a9be
00000050: af9a 23be 686e 0c3f f6ef e33e 388c 003f
00000060: b16a 673f 99c4 b13e 3835 56bf dad0 82bd
00000070: 7809 7fbf ffb9 d2bf a9bf df3e cad1 9e3f
00000080: 69fd e63f 2102 be3e dc6c c53f 9d3a 87be
00000090: b952 d6bf af08 3dbe fecc cf3e 5f1f d9bd
000000a0: 9b75 263f 8ef3 9a3f 48e2 a2bf 5627 cfbf
000000b0: ca52 b3bf fa79 6abf ce83 843f fee8 fc3f
000000c0: 3f91 d2be d969 0dbe 9be0 41bf 2dd7 f9be
000000d0: df4e a2bf 8c36 d3be afe4 eabf 94f6 f9be
000000e0: 20ce cf3f fdb4 71bf 5247 eabe 1b78 8fbe
000000f0: 4150 ac3f 5c21 9c3f 9fd8 8e3f 05ae ed3f
00000100: 123f 8bbf 4d55 3a3e e386 0f3f b6d0 c1bf
00000110: 8ae8 28c0 bdf2 b13f 261a dfbe cbac 663f
00000120: 9be0 dd3f 0b23 41bf e8e7 ad3d 50e3 8cbf
00000130: 982c c6bb 8627 583e c3a3 13bf 4fa1 8d3f
00000140: e0ac b73e fd11 42be 5231 1d3f d55e 733f
00000150: 0189 6d3f 5a24 b1bd dc26 073f 4fc3 b4bf
00000160: 97a3 05bf f7f5 923e 23aa 453f d780 c2bf
00000170: 212b b43f 0149 31be 3b63 e7bf 0c59 203e
00000180: f3b9 0d3f 4a96 cc3f b433 53bf 979f 0b40
00000190: 177d e33f 44ac 11c0 d4f1 da3e 5df2 5b3f
000001a0: f33d a9be 31a3 4fbf 552c 91bf f616 323e
000001b0: 0582 5bbf f14a 653e d18e 02c0 f844 c5bf
000001c0: 4ae3 aabe 7a4b 663f b09f 92bf abbe 2dbf
000001d0: beef 93be 5557 3d3f 09c4 c83d 1e52 92bf
000001e0: 24fa c13d 143e 8c3f 8409 e0bf baea a43f
000001f0: 9f04 03bf 6b8d 563f 77aa 18bf af17 893f
00000200: 5d7c 45bf a242 8abf 82e0 023e e197 173f
00000210: 9ac0 a13f f447 1b40 9b40 22bf 94af 5c3f
00000220: 572e d5bf 47d1 5e3f 8081 43be 719d 1c3f
00000230: d65d f1be 94dc c0bf 5033 683f 3d6c f53f
00000240: 9f27 b53e 8279 153f 46d2 9fbf 1a4e c1bf
00000250: 058d 473f 48a7 733f 1937 42be 0b7e 543f
00000260: 81a1 9bbf ef71 47bf 7a01 33bf 2135 52be
00000270: c93f 03bf d71c 5b3d 1c8c 5a3d d57f c73e
00000280: 1d58 8d3f c2b5 5c3e 4211 543f 1a9c 55bf
00000290: c241 31bf d757 9e3f 208c de3f 6cc9 b43e
000002a0: f8bc 9e3e 1ac2 3f3f 1e76 e7be 07ff 5a3f
000002b0: b75a d83f 93d3 00c0 8b5a 6a3f 3e5c 99bf
000002c0: c299 acbe fad0 373f 1b8d 84be 18fe 92bf
000002d0: b854 a4be 6e3b cbbf bc91 e23e 40a7 ecbf
000002e0: 07f4 efbe ceac a93f 3452 423f 58ea f2be
000002f0: 2b41 ed3e 2861 1abf ce78 e3bf 3821 583e
00000300: 3a5e 1cbf 6886 67bf 45be 123e a27b 73bf
00000310: 5305 bd3f d490 e93e 790c 683f 72e9 3b40
00000320: 1d67 08bf 0996 17be aa3a 0e3e d366 3cbe
00000330: 986a 4ebf db3d 3b3f 5b87 85be 5f20 523d
00000340: b15a b6bf 95f2 a6bd 53f9 de3f 1ae8 083f
00000350: a54f 503f 6888 e9be e18d 6b3e adb5 8cbf
00000360: c3e5 50be d925 d1bd 92fc 023e 8f10 40bf
00000370: 2bcd bcbf 9c8d d23d f747 cdbf abeb 443f
00000380: fb2c 10bf 6946 cd3f a397 f2be 17b2 3b40
00000390: e24d 7abe f675 81bf 5322 253f ceee b0be
000003a0: 4f98 3ebf 4228 01c0 be3a 003e 858e 01c0
000003b0: 9f82 49bf 1909 fb3e 7898 953f fc49 9dbe
000003c0: 14bd 7abf ef57 ac3f 737d 2e3f 1b50 693f
000003d0: a95e 46bf a2f6 673e a1f8 54bf 9692 1440
000003e0: 43db 00be 9c25 3a3f ea21 523f 7627 3c3f
000003f0: 8344 8e3f 56ab a63f a9d4 5abf 16a6 5cbf
-0.11032049 -0.7118298 -1.4215324 -0.077028476 -0.8953467 0.43494308 -0.33154655 1.4933039
-0.9929968 0.18423812 -2.3225744 0.45960942 -0.03814155 -1.0451756 -0.8219575 -0.10267033
1.1197392 1.0283651 0.36332682 -0.33057138 -0.15976976 0.54855967 0.44519013 0.50213957
0.90397173 0.34720305 -0.83674955 -0.063874915 -0.99623823 -1.6463012 0.43700913 1.2407773
1.8046085 0.37111 1.5423846 -0.26411906 -1.6743995 -0.18460344 0.40586084 -0.10601687
0.650232 1.2105577 -1.2725306 -1.6183879 -1.400964 -0.9159237 1.0352724 1.9758604
-0.4112644 -0.13809909 -0.75733346 -0.4879698 -1.268032 -0.41252553 -1.8351039 -0.48820937
1.6234779 -0.9441679 -0.45757538 -0.2802132 1.3461992 1.219768 1.1159858 1.8568732
-1.0878623 0.18196602 0.56065196 -1.5141819 -2.639193 1.3902203 -0.43574637 0.9010741
1.7334169 -0.75444096 0.08491498 -1.100687 -0.0060477965 0.21108827 -0.57671756 1.1064852
0.3587408 -0.18952174 0.6140338 0.9506658 0.92787176 -0.08649512 0.5279367 -1.4122103
-0.52202743 0.2870328 0.77212733 -1.5195569 1.4075662 -0.17313005 -1.8077158 0.15658969
0.5536186 1.5983365 -0.8250077 2.1816156 1.7772549 -2.2761393 0.42762625 0.8591669
-0.33055076 -0.81108385 -1.1341654 0.17391571 -0.8574527 0.22391869 -2.0399668 -1.5411673
-0.33376533 0.8995892 -1.1454983 -0.6786906 -0.28893846 0.73961383 0.09803016 -1.143131
0.09471539 1.0956445 -1.7502904 1.2884133 -0.51178926 0.83809537 -0.5963511 1.0710353
-0.7714289 -1.0801585 0.12780955 0.59216124 1.2636902 2.4262667 -0.6337983 0.8620541
-1.6654767 0.8703808 -0.19092369 0.61177737 -0.47141904 -1.5067315 0.90703297 1.9173657
0.3538179 0.5838853 -1.2486045 -1.510196 0.77949554 0.95177126 -0.1896633 0.83004826
-1.2158662 -0.77908224 -0.6992413 -0.2052808 -0.51269203 0.0534943 0.053356275 0.38964716
1.1042515 0.2155371 0.82838833 -0.8344132 -0.69240963 1.2370557 1.7386513 0.35309923
0.31003547 0.7490555 -0.45207304 0.8554539 1.6902684 -2.0129135 0.9154441 -1.1981275
-0.33711058 0.7180325 -0.25888905 -1.1483793 -0.32095885 -1.5877512 0.44251812 -1.8488541
-0.46865866 1.3255861 0.7590668 -0.47444415 0.46338782 -0.603045 -1.7771242 0.21106422
-0.6108128 -0.9043946 0.14330395 -0.95110524 1.476725 0.45618308 0.9064403 2.9361234
-0.5328234 -0.14803328 0.13889566 -0.183986 -0.806314 0.7314126 -0.2607983 0.051300403
-1.4246427 -0.081517376 1.7419838 0.5347916 0.8137153 -0.45611882 0.23003341 -1.0992943
-0.20400147 -0.10212297 0.1279166 -0.75025266 -1.4750112 0.10280916 -1.6037587 0.769221
-0.56318635 1.6037112 -0.47381315 2.9327447 -0.24443772 -1.0114124 0.645055 -0.34557194
-0.74451154 -2.0180821 0.12522408 -2.0243237 -0.78714937 0.49030378 1.1687155 -0.30720508
-0.9794476 1.3464335 0.6816017 0.91137856 -0.7748819 0.22652677 -0.8319188 2.321447
-0.12583642 0.7271364 0.82083 0.7349771 1.1114658 1.3021038 -0.85480744 -0.8619093
